…
2021-05-09 16:03:49.348653: I tensorflow/stream_executor/platform/default/dso_loader.cc:44] Successfully opened dynamic library libcudnn.so.7
[[1. 0.]
 [1. 0.]
 [1. 0.]
 ...
 [0. 1.]
 [0. 1.]
 [0. 1.]]
(2620, 96, 96, 3)
(2620, 2)
Model: "model"
_________________________________________________________________
Layer (type)                 Output Shape              Param #   
=================================================================
input_1 (InputLayer)         [(None, 96, 96, 3)]       0         
_________________________________________________________________
conv2d (Conv2D)              (None, 96, 96, 16)        448       
_________________________________________________________________
dropout (Dropout)            (None, 96, 96, 16)        0         
_________________________________________________________________
max_pooling2d (MaxPooling2D) (None, 48, 48, 16)        0         
_________________________________________________________________
conv2d_1 (Conv2D)            (None, 48, 48, 32)        4640      
_________________________________________________________________
dropout_1 (Dropout)          (None, 48, 48, 32)        0         
_________________________________________________________________
max_pooling2d_1 (MaxPooling2 (None, 24, 24, 32)        0         
_________________________________________________________________
conv2d_2 (Conv2D)            (None, 24, 24, 64)        18496     
_________________________________________________________________
dropout_2 (Dropout)          (None, 24, 24, 64)        0         
_________________________________________________________________
max_pooling2d_2 (MaxPooling2 (None, 12, 12, 64)        0         
_________________________________________________________________
conv2d_3 (Conv2D)            (None, 12, 12, 128)       73856     
_________________________________________________________________
dropout_3 (Dropout)          (None, 12, 12, 128)       0         
_________________________________________________________________
max_pooling2d_3 (MaxPooling2 (None, 6, 6, 128)         0         
_________________________________________________________________
conv2d_4 (Conv2D)            (None, 6, 6, 256)         295168    
_________________________________________________________________
dropout_4 (Dropout)          (None, 6, 6, 256)         0         
_________________________________________________________________
max_pooling2d_4 (MaxPooling2 (None, 3, 3, 256)         0         
_________________________________________________________________
conv2d_5 (Conv2D)            (None, 3, 3, 512)         1180160   
_________________________________________________________________
dropout_5 (Dropout)          (None, 3, 3, 512)         0         
_________________________________________________________________
max_pooling2d_5 (MaxPooling2 (None, 2, 2, 512)         0         
_________________________________________________________________
flatten (Flatten)            (None, 2048)              0         
_________________________________________________________________
dense (Dense)                (None, 64)                131136    
_________________________________________________________________
dropout_6 (Dropout)          (None, 64)                0         
_________________________________________________________________
women_out (Dense)            (None, 2)                 130       
=================================================================
Total params: 1,704,034
Trainable params: 1,704,034
Non-trainable params: 0
_________________________________________________________________
Epoch 1/500
 1/31 [..............................] - ETA: 0s - loss: 0.7940 - accuracy: 0.5312 7/31 
…
