…
2021-05-08 18:25:03.545349: I tensorflow/stream_executor/platform/default/dso_loader.cc:44] Successfully opened dynamic library libcudnn.so.7
Model: "model"
__________________________________________________________________________________________________
Layer (type)                    Output Shape         Param #     Connected to                     
==================================================================================================
input_1 (InputLayer)            [(None, 96, 96, 3)]  0                                            
__________________________________________________________________________________________________
conv2d (Conv2D)                 (None, 96, 96, 16)   448         input_1[0][0]                    
__________________________________________________________________________________________________
dropout (Dropout)               (None, 96, 96, 16)   0           conv2d[0][0]                     
__________________________________________________________________________________________________
activation (Activation)         (None, 96, 96, 16)   0           dropout[0][0]                    
__________________________________________________________________________________________________
max_pooling2d (MaxPooling2D)    (None, 48, 48, 16)   0           activation[0][0]                 
__________________________________________________________________________________________________
conv2d_1 (Conv2D)               (None, 48, 48, 32)   4640        max_pooling2d[0][0]              
__________________________________________________________________________________________________
dropout_1 (Dropout)             (None, 48, 48, 32)   0           conv2d_1[0][0]                   
__________________________________________________________________________________________________
activation_1 (Activation)       (None, 48, 48, 32)   0           dropout_1[0][0]                  
__________________________________________________________________________________________________
max_pooling2d_1 (MaxPooling2D)  (None, 24, 24, 32)   0           activation_1[0][0]               
__________________________________________________________________________________________________
conv2d_2 (Conv2D)               (None, 24, 24, 64)   18496       max_pooling2d_1[0][0]            
__________________________________________________________________________________________________
dropout_2 (Dropout)             (None, 24, 24, 64)   0           conv2d_2[0][0]                   
__________________________________________________________________________________________________
activation_2 (Activation)       (None, 24, 24, 64)   0           dropout_2[0][0]                  
__________________________________________________________________________________________________
max_pooling2d_2 (MaxPooling2D)  (None, 12, 12, 64)   0           activation_2[0][0]               
__________________________________________________________________________________________________
conv2d_3 (Conv2D)               (None, 12, 12, 128)  73856       max_pooling2d_2[0][0]            
__________________________________________________________________________________________________
dropout_3 (Dropout)             (None, 12, 12, 128)  0           conv2d_3[0][0]                   
__________________________________________________________________________________________________
activation_3 (Activation)       (None, 12, 12, 128)  0           dropout_3[0][0]                  
__________________________________________________________________________________________________
max_pooling2d_3 (MaxPooling2D)  (None, 6, 6, 128)    0           activation_3[0][0]               
__________________________________________________________________________________________________
conv2d_4 (Conv2D)               (None, 6, 6, 256)    295168      max_pooling2d_3[0][0]            
__________________________________________________________________________________________________
dropout_4 (Dropout)             (None, 6, 6, 256)    0           conv2d_4[0][0]                   
__________________________________________________________________________________________________
activation_4 (Activation)       (None, 6, 6, 256)    0           dropout_4[0][0]                  
__________________________________________________________________________________________________
max_pooling2d_4 (MaxPooling2D)  (None, 3, 3, 256)    0           activation_4[0][0]               
__________________________________________________________________________________________________
conv2d_5 (Conv2D)               (None, 3, 3, 512)    1180160     max_pooling2d_4[0][0]            
__________________________________________________________________________________________________
dropout_5 (Dropout)             (None, 3, 3, 512)    0           conv2d_5[0][0]                   
__________________________________________________________________________________________________
activation_5 (Activation)       (None, 3, 3, 512)    0           dropout_5[0][0]                  
__________________________________________________________________________________________________
max_pooling2d_5 (MaxPooling2D)  (None, 2, 2, 512)    0           activation_5[0][0]               
__________________________________________________________________________________________________
flatten (Flatten)               (None, 2048)         0           max_pooling2d_5[0][0]            
__________________________________________________________________________________________________
dense (Dense)                   (None, 64)           131136      flatten[0][0]                    
__________________________________________________________________________________________________
dense_1 (Dense)                 (None, 64)           4160        dense[0][0]                      
__________________________________________________________________________________________________
dropout_6 (Dropout)             (None, 64)           0           dense_1[0][0]                    
__________________________________________________________________________________________________
dropout_7 (Dropout)             (None, 64)           0           dropout_6[0][0]                  
__________________________________________________________________________________________________
women_out (Dense)               (None, 1)            65          dropout_7[0][0]                  
__________________________________________________________________________________________________
men_out (Dense)                 (None, 1)            65          dropout_7[0][0]                  
==================================================================================================
Total params: 1,708,194
Trainable params: 1,708,194
Non-trainable params: 0
__________________________________________________________________________________________________
Epoch 1/500
 1/31 [..............................] - ETA: 0s - loss: 1.4914 - wom
…
